2025-03-04 12:34:07,158 - ufc_model - INFO - Starting data preprocessing
2025-03-04 12:34:07,173 - ufc_model - INFO - Preprocessed data shape: (6012, 140)
2025-03-04 12:34:07,173 - ufc_model - INFO - Using device: cpu
2025-03-04 12:34:07,174 - ufc_model - INFO - Preparing data for training
2025-03-04 12:34:07,190 - ufc_model - INFO - Data split: Train: 4208, Validation: 902, Test: 902
2025-03-04 12:34:07,227 - ufc_model - INFO - Model initialized with input size: 139
2025-03-04 12:34:07,228 - ufc_model - INFO - Model architecture:
FightPredictor(
  (layer1): Linear(in_features=139, out_features=128, bias=True)
  (bn1): BatchNorm1d(128, eps=1e-05, momentum=0.1, affine=True, track_running_stats=True)
  (layer2): Linear(in_features=128, out_features=64, bias=True)
  (bn2): BatchNorm1d(64, eps=1e-05, momentum=0.1, affine=True, track_running_stats=True)
  (layer3): Linear(in_features=64, out_features=32, bias=True)
  (bn3): BatchNorm1d(32, eps=1e-05, momentum=0.1, affine=True, track_running_stats=True)
  (output): Linear(in_features=32, out_features=1, bias=True)
  (relu): ReLU()
  (dropout): Dropout(p=0.3, inplace=False)
  (sigmoid): Sigmoid()
)
2025-03-04 12:34:07,228 - ufc_model - INFO - Starting training for 400 epochs
2025-03-04 12:34:07,764 - ufc_model - INFO - Epoch 1/400, Train Loss: 0.6744, Val Loss: 0.6315, Val Accuracy: 0.6386, Val Precision: 0.6972, Val Recall: 0.8023, Val F1: 0.7461, Val AUC: 0.6493, LR: 0.000500
…
2025-03-04 14:19:49,580 - ufc_model - INFO - Class distribution: Wins: 13970.0, Losses: 10078.0
2025-03-04 14:19:49,580 - ufc_model - INFO - Rebalancing classes due to significant imbalance
2025-03-04 14:19:49,607 - ufc_model - INFO - Balanced data shape: (22352, 140)
2025-03-04 14:19:49,608 - ufc_model - INFO - Final class distribution: Wins: 11176.0, Losses: 11176.0
2025-03-04 14:19:49,640 - ufc_model - INFO - Data split: Train: 15646, Validation: 3353, Test: 3353
2025-03-04 14:19:49,691 - ufc_model - INFO - Model initialized with input size: 139
2025-03-04 14:19:49,691 - ufc_model - INFO - Model architecture:
FightPredictor(
  (layer1): Linear(in_features=139, out_features=256, bias=True)
  (bn1): BatchNorm1d(256, eps=1e-05, momentum=0.1, affine=True, track_running_stats=True)
  (layer2): Linear(in_features=256, out_features=128, bias=True)
  (bn2): BatchNorm1d(128, eps=1e-05, momentum=0.1, affine=True, track_running_stats=True)
  (layer3): Linear(in_features=128, out_features=64, bias=True)
  (bn3): BatchNorm1d(64, eps=1e-05, momentum=0.1, affine=True, track_running_stats=True)
  (layer4): Linear(in_features=64, out_features=32, bias=True)
  (bn4): BatchNorm1d(32, eps=1e-05, momentum=0.1, affine=True, track_running_stats=True)
  (output): Linear(in_features=32, out_features=1, bias=True)
  (relu): ReLU()
  (dropout): Dropout(p=0.4, inplace=False)
  (sigmoid): Sigmoid()
)
2025-03-04 14:19:49,691 - ufc_model - INFO - Starting training for 400 epochs
2025-03-04 14:19:51,906 - ufc_model - INFO - Epoch 1/400, Train Loss: 0.6727, Val Loss: 0.6173, Val Accuracy: 0.6648, Val Precision: 0.6633, Val Recall: 0.6696, Val F1: 0.6665, Val AUC: 0.7183, LR: 0.000500
…
